mlproject/parameters.npz (npz, 207982 bytes, 6 tensors)

W1 f8 [32, 784]
0	0xbfbe103b72bb5f00	-0.11743518401214814
1	0x3fa979674bd5c730	0.04975436020585133
2	0x3fd0c979af68e4cc	0.26229707841737304
3	0x3fcf25115f946904	0.24331872145632627
4	0xbfb3e1919c7864e0	-0.07766065664363309
5	0x3fdb37f2331d3a0c	0.42528967849367016
6	0xbfbc9b06c3fc9988	-0.11174051556426978
7	0xbfd9db90d9a9e738	-0.40402623420924355
8	0xbfc4e07097761b80	-0.16309935947012022
9	0x3fd7c2cd78995b92	0.3712648084378368
10	0x3fd683e95631f144	0.35180123727311163
11	0xbfbe36b90c2ce378	-0.11802250430345207
12	0x3fd44d57cf9f1ca6	0.31722064281025053
13	0xbfc5823e5ac81210	-0.16803721840564423
14	0xbfd07e2e17dffb0a	-0.25770141917739464
15	0xbfd81cad89d885ba	-0.3767503591680811
16	0xbfd665f9dfc1df8e	-0.34997412539768724
17	0x3fd08f44e7715e9e	0.25874445535507984
18	0x3fd17e415c2df0d0	0.27333101274394966
19	0xbfb25aaad65eb2f0	-0.07169597371712277
20	0xbfdcee788bfe1986	-0.4520551077952394
21	0xbfd905e25357b2b0	-0.3909841359989441
22	0xbfd85830f23aed14	-0.3803827634362318
23	0x3fa49042f95d8000	0.0401631287957116
24	0xbfcc2ad197bac828	-0.22005672367737472
25	0x3fb8f34646fe5c58	0.09746207459680656
26	0xbfd50ffeddcd939c	-0.3291012922330141
27	0x3fd7967f50ce6106	0.3685606278536543
28	0x3fdd1a826ca4e35a	0.45474300966048065
29	0x3fdf1fec5a1a72e4	0.4863234405436698
30	0xbfbacd5e2fb95af8	-0.10469616570604134
31	0x3fd43b61ba419874	0.31612437428555684
32	0x3fcbd19cb8c84a94	0.21733435652329958
33	0x3fcf795eef77da08	0.24589144413739938
34	0xbfb490118ae26998	-0.08032331124051095
35	0x3fd500d6ac48bbe0	0.3281761820280149
36	0xbfdc62ad57f8bc40	-0.4435227736566425
37	0xbfd20d45db5a0964	-0.2820601122004034
38	0xbfbbbeaec319e08f	-0.10837833655557659
39	0x3fbc9301a92c2dc8	0.11161814098539147
40	0xbfd37096a662dc6b	-0.30374685524606687
41	0xbfd99708b51daa5e	-0.39984338461969127
42	0x3fc7cb5a82e67e12	0.18589335815066527
43	0x3fb40fd1e22cb0ab	0.07836639186706644
44	0xbfdc3bb5c6c79de9	-0.441144413109639
45	0xbfbe15f6835a3b50	-0.11752262789580681
46	0x3fd02bd0ae9cf34b	0.2526742654043132
47	0xbfd5826db1c144d6	-0.3360857234848259
48	0x3f70cd9a8bcb1702	0.004102328963829784
49	0x3fdde3e0c365a352	0.4670335682081276
50	0x3faa2a584c103148	0.051104316029610575
51	0xbfd33bb2d07b32f5	-0.30051870688912113
52	0x3fc4b4d6cbccb130	0.16176876975203802
53	0x3fd069ca74a0a32c	0.2564569605770426
54	0x3fd6f8a9b43e1adc	0.358927179353868
55	0xbfb2294e9c727f80	-0.07094279593957076
56	0xbfd8548dacee12c4	-0.3801607311982418
57	0x3fddc819051a90d4	0.465337996467736
58	0xbfd9a3ee539ff8b5	-0.40063055197232283
59	0x3fd6d713fa09011b	0.3568773214101541
60	0x3fd3f80daa30ad7d	0.3120149766934544
61	0x3fd2d346dd11b084	0.2941453131559302
62	0x3fa7c5d0606c9cdb	0.04643107583097513
63	0x3fae815e3ad02043	0.05958075015956912
64	0x3fb5865350def25f	0.08408089374911175
65	0x3fcff399bf4bf337	0.2496215995851345
66	0xbfcfd21939624b45	-0.24859919835997793
67	0xbfdb7b8cb84800b1	-0.42941587444512225
68	0xbfd6245c6a05490c	-0.3459692988736982
69	0xbfdd6c4a029d19ce	-0.45973444228402804
70	0xbfd1fc1e50756976	-0.2810130868653212
71	0xbfdb92e7f78b22d3	-0.4308414380471223
72	0xbfda654857d1e993	-0.41243179870766616
73	0xbfdcc8b1f3e029a1	-0.44974945846538544
74	0xbfd6ac6c19954672	-0.35427381990766726
75	0x3fdb049fb6371e95	0.42215721888030916
76	0x3fdf6702fc3acfea	0.4906623328381544
77	0xbfd4a880dad35320	-0.32278462762524107
78	0xbfd1beedb68e960a	-0.2772783549101808
79	0x3f9848de6565f706	0.02371547216306793
80	0xbfc9fdc4ca1dbd1e	-0.20305690640405144
81	0xbfa2df728ce4a2c2	-0.036861018847337515
82	0x3fd5c34693dcfe6c	0.34004368247767647
83	0xbfd5f5064eb77de4	-0.34308011710342456
84	0x3fc7e142ade5ad78	0.1865619038684192
85	0xbfbcbeaef1f8c468	-0.1122845974685035
86	0xbfc0728bcf66158d	-0.12849567057507408
87	0x3fd8ca1419378b3d	0.3873338934192139
88	0x3fd40fc189073d40	0.3134616697470456
89	0xbfd1c69496babeec	-0.27774538726497044
90	0xbfce4e8284e00535	-0.23677093017617215
91	0xbf9668ddd4567772	-0.02188440903193318
92	0xbfb402b35d04ec46	-0.07816620846726705
93	0xbfc5e6f6ef4a9389	-0.17111097988268067
94	0xbfd7425f40a2c273	-0.3634260302742753
95	0xbfc9e32c529c8827	-0.20224527391207056
96	0xbfd4da3ebdcc4981	-0.32582062277756313
97	0xbfb5a014639589bc	-0.08447387152913327
98	0xbfdb0f3f4d84eb43	-0.4228056199096281
99	0x3fd2799ca83ee0f0	0.2886726038955336
100	0x3fccda7a52950169	0.2254174140198402
101	0x3fddaf473d7aa78a	0.46382313731975755
102	0x3fdf07e4a5c78d99	0.48485675992398
103	0x3fd8b531de21b808	0.3860592526679061
104	0x3fdf0bb50f70a78b	0.48508955486124056
105	0x3fdfafbc82ca0223	0.4951010968434579
106	0x3fd8ac69d5219de8	0.38552327931981134
107	0x3fbdb9fb4702f373	0.11611910327606072
108	0x3fbb9fbfe487fbb9	0.10790633515715244
109	0xbfdb22f8c804f2ae	-0.4240095094026327
110	0xbfc641c0157accae	-0.17388154076397683
111	0x3fcc5a5e6b2c4554	0.22150783761075366
112	0x3fa4544bc91c7700	0.03970562772722808
113	0xbfd424d2f51c4836	-0.3147475618035317
114	0x3fd59423487ce34c	0.3371666152848334
115	0xbfa6281dd57e8b13	-0.043274814902608004
116	0x3fb6da1f9040d2b3	0.08926579734618194
117	0x3fcf1080b8328685	0.24269112581264465
118	0x3fd3e4171d2e9cdc	0.31079652643025013
119	0x3fd33aefef02a4de	0.30047224369861947
120	0x3fd9c75a3c015793	0.4027925096501061
121	0xbfe01648b5acde12	-0.502720217546939
122	0x3fd1419d061bcb48	0.2696297225622186
123	0xbfd522a27985d5c7	-0.3302389322992351
124	0xbfd6da7438923e5d	-0.3570833733037711
125	0xbfd72c6607827093	-0.3620848725638634
126	0x3fc6d2dd27b19af6	0.17831005514309312
127	0xbfc50f468cecad0b	-0.16452867394523482
128	0x3f9a4578f795db67	0.02565564166203718
129	0x3fcba1198d65ed65	0.21585387615401
130	0xbfcd5c6e72d61507	-0.22938328368415048
131	0xbfab9b96ba76f579	-0.053921423208048
132	0xbfab19fad0a69e75	-0.05293258473403465
133	0xbfd20bf0d6310ed4	-0.281978806659237
134	0x3fc5c17796c642d6	0.16996664869340944
135	0xbfd189d885eb773a	-0.2740384395418577
136	0xbfd0a22d924e2462	-0.25989856040593484
137	0xbfd25ea58d736c18	-0.28702677548943845
138	0x3f9f57442d52c65f	0.030606332079236128
139	0x3fd236a7d9169990	0.28458591651942644
140	0x3fd36052a114fae4	0.3027540753427458
141	0xbfc0cee9a57f6284	-0.1313144739240394
142	0x3fc1fa9a34283230	0.14046027704934394
143	0x3fd0063b09264cb1	0.2503802861549032
144	0xbfd1fb80c5cdbbcb	-0.28097552601587655
145	0xbfdb540f509c4609	-0.42700560447801245
146	0xbfd5693db4dcb1df	-0.33454840338052166
147	0xbfbbfd9294b048ab	-0.1093379605302142
148	0x3fafb36606991bca	0.061915577226094934
149	0xbfe48e5205e644e7	-0.642373096010627
150	0xbfdc96650dc1b3c9	-0.44667936652586754
151	0xbfe6602290f0a706	-0.6992352324352573
152	0x3fcfdc94bfd57784	0.24891909949195334
153	0xbfce6da7bbc2c67b	-0.23772141139993494
154	0x3fca303d0b3b645c	0.20459712074697023
155	0xbfa973c540a22750	-0.04971138395292363
156	0x3f8ded805557f0ae	0.014613154034116196
157	0xbfb561c0c92451bc	-0.08352284346285094
158	0xbfabaa0e58f104ec	-0.0540317996569771
159	0xbfd96d12a2edd6e8	-0.3972822753051859
160	0x3fc39023baad23c2	0.15283629050307296
161	0x3fe0be5ab48b8d1d	0.5232366110107339
162	0x3faaa344ac206fff	0.05202688790470233
163	0x3fde80d09bc8ad0f	0.47661223614950726
164	0xbfb4c838e9bba084	-0.08118015009279317
165	0xbfcb6984ebf08044	-0.21415769119721706
166	0xbfc515444cfe0f55	-0.16471151122470454
167	0xbfd3934b9dda1682	-0.30586519637322607
168	0xbf9c7bf3e4d89e00	-0.027816592066441714
169	0x3fbf28da7a0428d0	0.12171712378418253
170	0xbfc8c275f40e39a4	-0.19343447129035696
171	0xbf9e4905dac5f836	-0.029575435140479743
172	0x3fbd979e071e5023	0.11559474633969606
173	0xbfe0acb03c2f102a	-0.5210801291909821
174	0x3fc9da7296efc092	0.20197899217555865
175	0xbfdacd044999ea62	-0.4187632292520559
176	0xbfc08c4232184b81	-0.12928035207786695
177	0xbfe65e0d7cfa406f	-0.6989810410468759
178	0xbfc8b62363adce8e	-0.19305841796050455
179	0xbfd5fee0bba40e7a	-0.34368151020337445
180	0x3fd816d7ecdbf937	0.37639425402439336
181	0xbfa21a98187eb511	-0.03535914706240296
182	0x3fe2bcf562501aa8	0.5855662269758186
183	0x3fc0fb3e7d34aaf8	0.13266736138879032
184	0x3fa398b897344f3e	0.038274544198570556
185	0x3fd06ce14de3d391	0.2566455135959638
186	0xbfcc5f46c2214db9	-0.2216576049710122
187	0xbfbd9a4759f635ba	-0.11563535639125791
188	0x3fd05292506288ec	0.2550397667893225
189	0x3fc0f8d9624cd656	0.13259427356540482
190	0x3fc70b7679ba7ceb	0.18003731673977738
191	0x3fd1dbfc4f279f14	0.2790518544193088
192	0xbfca01e039b51a5e	-0.20318224733110218
193	0x3fdee2189932c7b2	0.48254981003548914
194	0x3fb6325bf513047e	0.08670592053660361
195	0x3fd57b4134e0d36b	0.33564787067307716
196	0x3fdbf055058740fc	0.43654370822788713
197	0x3fd837775066a31f	0.378385380283861
198	0x3fb8f912ae578442	0.09755055195229637
199	0xbfdf47665ee6a1a4	-0.48873290317217255
200	0xbfdc7ccb924bd7df	-0.44511689459556963
201	0xbfb74600af6967b9	-0.09091190607560308
202	0x3fd21241a8787c01	0.2823642869206538
203	0xbfe2822dfe991041	-0.5783910725226705
204	0xbfce66db899f5c94	-0.2375139638886351
205	0xbfd893e332495480	-0.38402633581910806
206	0xbfe4638aa2e812b8	-0.6371510679024004
207	0xbfa4e0e3c8269607	-0.040778272802793274
208	0x3fc059e03a276dbc	0.12774279441405934
209	0xbfc856b077e24517	-0.19014554837898665
210	0x3fe37b5046e2082c	0.6088029274399154
211	0x3fe274b53c27c1fe	0.5767465758236197
212	0x3fd7d04d45088788	0.3720887350228783
213	0xbfcbd7a2c3daf274	-0.21751818240399567
214	0xbfe10689e7b101ae	-0.5320481801245955
215	0x3fd1641f9371f503	0.27173604391994405
216	0xbfd057818040cf73	-0.2553409340355223
217	0x3fc336f4fd1c6a1b	0.1501146541493917
218	0xbfcc3d304832c712	-0.22061732793150007
219	0xbfe0f865f9316e54	-0.5303220622112783
220	0xbfba42fb3638ebfb	-0.10258455346858845
221	0x3fd56378b66389c8	0.33419626056106866
222	0x3fb8085e2ba17052	0.09387768330765425
223	0xbfda7771618814ee	-0.41354021572654076
224	0x3fb3ceeac51fcc0e	0.07737605393030852
225	0xbfb5fba4d6924781	-0.08587103117522867
226	0xbfbde92c8a1a52d4	-0.11683920261050257
227	0x3fbcf1c362477119	0.1130640139521727
228	0x3fc0118b7e60dbe6	0.12553542776888021
229	0xbfe0539b6385fb18	-0.5102059310737301
230	0xbfdaceb4e3d4862c	-0.4188663697151209
231	0xbfdc05a80e44db2b	-0.43784524339155223
232	0xbfd017255dd49cd5	-0.2514127174676564
233	0xbfaa5fe5b64be91e	-0.051512888434404255
234	0x3fb6bbd62541cea0	0.08880365762325448
235	0xbfd3a97389017720	-0.30721748713937025
236	0x3fd59fdcb8c82347	0.33788221402260316
237	0x3fdd0908f9fabbf4	0.45367645656636957
238	0x3f9e0fe7588058e8	0.02935754277867711
239	0x3fd4b59920b55a8b	0.3235838717859358
240	0xbfd52a2dc9bc4944	-0.33069939327937825
241	0xbfd17302f366b694	-0.27264474649096226
242	0xbf83eba69028d38f	-0.009726811670683037
243	0xbfb788687b1c96d7	-0.09192517285972755
244	0xbf93dc0126e11843	-0.019393938062670434
245	0xbfd408f403210d6a	-0.31304645829751243
246	0xbfde0bad514e0594	-0.46946270885390473
247	0xbfd3ea084eca718f	-0.3111592072907791
248	0xbfd06c84ae146c71	-0.25662343025187
249	0x3fb328110256d373	0.07483011538609023
250	0xbfb56aadecbeb90a	-0.08365904836566443
251	0xbfd8eaa7c4566693	-0.38932222531875843
252	0xbfb47b6c1482a968	-0.08000827313177228
253	0x3fd94ffccec7199d	0.39550705140245573
254	0x3fc4e70c45c04d10	0.16330102353877196
255	0x3fad5b421d82b586	0.05733687029110528

b1 f8 [32, 1]
0	0x3fcbf7f721e040b9	0.21850480226613003
1	0xbfaabd7f8971e6e4	-0.05222700646204517
2	0xbfb5fe23015b8f96	-0.08590906890054692
3	0x3f9cb32ef09c2555	0.028027280269303862
4	0xbfd64556428dbd1d	-0.34798199176198513
5	0xbfbdd4554cf4be7f	-0.11652119759377831
6	0xbfd252d1b67db539	-0.2863048822535635
7	0xbfa387a3c62f771d	-0.03814422411208638
8	0x3fbcbd57ada1161a	0.11226413716311648
9	0x3fc5260f93905ad7	0.16522402482288243
10	0xbfc8afcc10f0b791	-0.19286490275538573
11	0x3fdab0d0a466b7d1	0.4170419316750414
12	0x3fc81461493226f6	0.1881219489480867
13	0x3fdcda295b155b3a	0.4508155240522914
14	0x3fcb737c4054a9ae	0.21446183339260244
15	0xbfe1d337154a154d	-0.5570331016357756
16	0x3fd14890e16c2c40	0.27005407346650045
17	0x3fd7c6728dabbe66	0.3714872725968007
18	0xbfc461e91fc4e207	-0.15923799563621818
19	0xbfa9f937d0237f60	-0.050729507596541934
20	0x3fd6faf995944b48	0.3590682945952506
21	0xbfd997524b3f62d0	-0.3998609289970263
22	0x3fe07db8a48d38be	0.5153468336009366
23	0x3fbabc5279ed4ae4	0.10443606831294577
24	0xbfc4a6ffc62e486f	-0.16134640862270852
25	0xbfb812e17557da9d	-0.09403809656928748
26	0xbfcec6936efddb80	-0.24043505591881953
27	0xbfe424daf4a4ccb0	-0.6294989374349793
28	0x3fc1e9746b709bdb	0.13993697401130487
29	0xbfc1950a678dd0c7	-0.13736085945459406
30	0x3f95ac37ea164731	0.021164773619211267
31	0x3fe3ba78764ef9f6	0.616512518950741

W2 f8 [16, 32]
0	0x3fe05eaf14a6d9b0	0.5115580943445845
1	0xbfd3d1348cf8dab4	-0.30964387671285043
2	0x3f68e39db9cb818e	0.0030382233220366877
3	0x3fbf3ddab53a931c	0.12203757214099337
4	0xbfc3d0d72c7176e4	-0.15481080694274063
5	0x3fdaa3bde8de01d0	0.41624400845469456
6	0xbfc94307c64398af	-0.19735810452329391
7	0xbfda467520647030	-0.41055038607896943
8	0xbfc09bd97b105188	-0.129756150331229
9	0xbfd907d3e4393dc6	-0.3911027649637301
10	0xbfd3c5191d0cdcdd	-0.3089049133008766
11	0x3fdabd91c8dc7f19	0.41782040229189615
12	0xbfba1da85c79f766	-0.10201503999448178
13	0x3fdfe4364fcfa65b	0.49830396455818055
14	0xbfd33fbe7e9cf270	-0.30076563229139364
15	0x3fe507a807966241	0.6571846149627804
16	0xbfe54c7a911b9d57	-0.6655857881677701
17	0x3faf5b0361fb024b	0.06124125071574279
18	0xbfd0152c9788cb0a	-0.2512923698260897
19	0x3fd33fa54a2f9640	0.30075962300029246
20	0x3f867a6142e3662b	0.01097560868622612
21	0x3fd99474d068043b	0.3996860537736812
22	0xbfc1b30b1494488c	-0.1382764673695117
23	0x3fc72e24fc450329	0.18109571760035095
24	0xbfd81a2c870624e2	-0.37659753023088005
25	0xbfc0cedce1658628	-0.13131295209591198
26	0x3fdd337d27f0806a	0.4562676324876579
27	0x3fe090084bc8d12a	0.5175820808567881
28	0xbfc0b265d977b8c3	-0.13044427031076652
29	0xbfd7fc6e413e4469	-0.3747821461811954
30	0xbfdacd0482460b4f	-0.4187632820323203
31	0x3fe17463f0f97e77	0.5454578119788057
32	0xbff19ccfdbe91852	-1.1007841673140502
33	0xbfb065d20521e5cd	-0.06405365586569829
34	0x3fe371ee998ac61f	0.6076577185505733
35	0x3fdf9cca437dd98b	0.49394470778442984
36	0x3fc10fcf6ff411be	0.13329499212717438
37	0x3fc03f6a70851cc6	0.1269352960027616
38	0x3f89c56b6cfd00a0	0.01258357931476467
39	0x3fe0eae4a2a8c70a	0.5286734749736024
40	0xbfafdf8326b9d067	-0.062252138592982224
41	0x3f7317e06ce837e0	0.004661442434111124
42	0x3fb2317e3cd1cbb8	0.07106770500995097
43	0x3fcbcac68c0914d1	0.2171257194296801
44	0xbfd41c45483f09fe	-0.31422550254151804
45	0xbfcefdd55de071d8	-0.24212138255906157
46	0x3fdf6cdd99827dc4	0.49101963034805984
47	0x3fe1de182ac022fa	0.5583611330958711
48	0x3fa27edd850588d4	0.036124155509939776
49	0xbfae888a0d128ec3	-0.059635461898577734
50	0x3fe0d83bb0806138	0.526395649651966
51	0xbfd18f2485931dfc	-0.27436173481370907
52	0x3fdcc51ef7fc3786	0.44953130929285867
53	0xbfb399a5596de176	-0.07656320031481365
54	0xbfb16190cd2c367a	-0.06789498337840341
55	0x3fbfa0c846e6bbb7	0.12354709368695081
56	0xbfeaa609b8fcd56e	-0.8327683079757386
57	0x3fe6eab360d7a7fe	0.7161499873593582
58	0xbfc474ea2b35de2a	-0.15981795415767525
59	0xbfc9657a0013573f	-0.19840931895913091
60	0xbfcfc601af76ceaf	-0.24823018138487415
61	0xbfc9a24cf1a80e55	-0.20026552009231816
62	0x3fad1d09985de9a8	0.05686216340014322
63	0xbfd22fd49eba4831	-0.2841693449091763
64	0x3fda5df193165473	0.4119838653944676
65	0xbfc8c8baba7a4277	-0.19362577538824485
66	0x3fcfb6f6f9d41c6b	0.2477711410394677
67	0xbfc1c1e38f2147b9	-0.13872951973695338
68	0x3fda7e373de2e9ef	0.41395360034553524
69	0xbfdfa1f9894295ff	-0.4942611542158772
70	0x3fd33ad0808542a9	0.30046474982104115
71	0xbfc88e2e0d5fd88e	-0.19183898594900878
72	0xbfc0e129451223f0	-0.13187137482262257
73	0x3fd1bf0acb152dbf	0.2772852881650713
74	0x3fda38d924aea014	0.4097197397445609
75	0x3fc12bdd56dc1f1b	0.13415114155963512
76	0xbfd8002b86e0bb8c	-0.3750103776136988
77	0xbf7d6c4e66be34dd	-0.007183367018922496
78	0xbfe0e9f82df6cd8a	-0.5285607240424934
79	0xbfddf251e2674c31	-0.46791503057210365
80	0x3fd9ec8b82ff052d	0.40506255905718797
81	0xbfe2fb58d77fbcb6	-0.5931820115055391
82	0xbfdebfaf0c62ec0a	-0.4804494496308399
83	0xbfd7d9d2356d0bfa	-0.37266974656466767
84	0xbfde699ed1a4174f	-0.4751965567851259
85	0x3fbcaa77f78d5d33	0.11197614473109212
86	0x3fc3b0801c4bd118	0.15382386571548845
87	0xbfe62387c442e88e	-0.6918371995191295
88	0x3fcdcef4368136d0	0.232878233541149
89	0x3fb8382be93199c8	0.0946071094818769
90	0xbfdf134a2f651d52	-0.48555235508361705
91	0xbfaddb505c1b3456	-0.05831385731071552
92	0x3fd662cff93f048c	0.3497810300869524
93	0x3fafaea1a6bce46b	0.061879207233183596
94	0x3fc35f591f7db615	0.15134729421281237
95	0x3fdea9ce2203ed01	0.4791140873127944
96	0x3fdc3654ea231e60	0.4408161436553879
97	0x3fc19c6d007c5f2f	0.13758623622629204
98	0x3fd800b86c25b525	0.3750439697385722
99	0xbfdc3de2ca2ec37d	-0.4412772154274121
100	0x3fbcc6fc1baed0b0	0.11241126705027926
101	0x3fd39acb50239784	0.306322887669346
102	0xbfb7f16073ac86dc	-0.09352686714239716
103	0xbfca4a28d83a8712	-0.2053881698421312
104	0x3f8439e1c1b9db76	0.009876025890873424
105	0xbfc9d1682689015d	-0.20170308953857843
106	0xbf9f6acb008e9890	-0.030680820378301166
107	0x3fe02c71cc4e5677	0.5054253568984696
108	0x3fd3d8b37aacbeee	0.3101013849254589
109	0xbfbe793ea6d08541	-0.11903754780407373
110	0x3fbe2750e419496d	0.11778741425340451
111	0xbfe5e179ed6fef06	-0.6837739598699677
112	0xbfc201f10ca2dbf5	-0.14068425290108136
113	0xbfdefaabcbaeb3df	-0.48404974833357345
114	0xbfe07487c5e453e1	-0.5142248978687541
115	0x3fd4f10eb2b73c81	0.32721297695838564
116	0x3ff1191a571f2078	1.0686286357104375
117	0x3fd48824c2576830	0.3208095453134119
118	0xbfc68cde13200f62	-0.1761739343056617
119	0x3fd3bd701a3c978f	0.3084373718469288
120	0xbfa0a9be1396ca0c	-0.03254503239749704
121	0xbfbd890f526b38dc	-0.11537261736086485
122	0x3fda7458bb3f27e0	0.4133512333470417
123	0x3fd3cdc242fe735a	0.3094335226285715
124	0xbfdf7c198c89f6be	-0.4919494507265475
125	0xbfd6fb6c0331e444	-0.3590955764007655
126	0xbfcd14734fe6b115	-0.22718659783766584
127	0xbfdb14b596630b9b	-0.4231389969465284
128	0xbfd7bd23d7e69b89	-0.3709191902548175
129	0xbfbfd0eb4e0f9bac	-0.1242816033915079
130	0x3fd6d163f19947e2	0.3565301761019538
131	0xbfd66a86e77f93e1	-0.35025189025173914
132	0x3fcb85867beea2a8	0.21501236964583836
133	0xbfe3a8df142e75a9	-0.6143641847772204
134	0x3fe0b0087073834d	0.5214883991539893
135	0x3fe104edbb9816e6	0.5318516410777334
136	0xbfc44ec520fafe3b	-0.15865387068150646
137	0x3fceccc9523a5f1a	0.2406245852951024
138	0x3fd8746c52555d94	0.3821059040105521
139	0x3fda4cbcd8d018df	0.41093369649060024
140	0xbfd5dac80d2bde3e	-0.3414783600451051
141	0x3fd14775329088db	0.2699864381594474
142	0x3fbb6d8ad83ba388	0.1071402337944517
143	0x3fe0fdcbcb85a1c5	0.5309809660948807
144	0x3fc3f198dbb059d5	0.15581045844073907
145	0xbf8efe12430e1c11	-0.01513304011474584
146	0x3fb4066a36ac7a08	0.07822288355644258
147	0x3fb2f72fbcd7f0f6	0.07408426628530038
148	0xbfc5a82981ba95d9	-0.1691944011155744
149	0xbfaf10946e3f09e9	-0.06067336889056547
150	0xbfd3bcb666032288	-0.30839309656270375
151	0xbfccaa8102f35591	-0.22395336765354704
152	0xbfc79a80b52d0eb4	-0.1844025501869645
153	0xbfd98739174bd8f4	-0.3988783576491095
154	0x3fa0eb88ec19b20f	0.03304698831638941
155	0x3fd69381bd4cb823	0.35275310026452383
156	0xbfdbe48747a09404	-0.43582326884126155
157	0xbfdcb29ff3618054	-0.4484023930326704
158	0xbfc4caa633ef34ad	-0.16243436370715383
159	0x3fcf1663663c1ddd	0.2428707360452184
160	0xbfc3193321f55d98	-0.149206534940032
161	0x3fd446d26b147760	0.3168226285650828
162	0x3faa316812adb54a	0.05115819194802869
163	0xbfe0ee2f3ecacadb	-0.5290752626809437
164	0x3fd34a400acfad33	0.30140687042031117
165	0x3fa80fd5369c510f	0.046995795170149283
166	0xbfd0195cbe7f822d	-0.25154799083068974
167	0xbfd6a6c707cf488d	-0.35392928850809185
168	0x3fdd97ebe7624594	0.4623975524528643
169	0xbfe76f6a8a07bbc8	-0.7323506065275689
170	0xbfdf7e5b71b0d4d0	-0.4920872316609577
171	0xbfe25ca1fdef62ee	-0.5738077125234591
172	0xbfe07a8fe515196f	-0.5149611925378802
173	0x3fd142aed3141ecd	0.2696950017275242
174	0x3fb84fbf08addfae	0.094966830843872
175	0xbfb7b9791fc94031	-0.09267384553936676
176	0x3fcc362410fea2fc	0.2204022486669358
177	0xbfdbb6982129b056	-0.4330196689468314
178	0xbfa613b679916973	-0.04311914667114793
179	0xbfdb71e23ef77c12	-0.4288259138974705
180	0x3fe34b7bd5f1602e	0.6029643229076151
181	0x3fac1dbb42d12865	0.05491433325421794
182	0x3f73ae32ddb0ec89	0.004804800696599839
183	0xbfd00e987aa806c8	-0.25089084604415435
184	0x3fbc80e96b9e108c	0.11134203793887049
185	0xbfc98b5a7592f96c	-0.1995652269451499
186	0xbfbbaffba14598c0	-0.10815403640080756
187	0xbfbee7057919ab1a	-0.1207126064925145
188	0xbf7d8a6d2731856a	-0.00721209180764624
189	0xbfc5eb9b6b7f7987	-0.17125265835688827
190	0x3fc5b25481d0b92b	0.16950470293654382
191	0x3fc0937561f5d07f	0.12950007708753117
192	0x3fd601b42670fbc3	0.3438539863017775
193	0x3fe52527fcef5b54	0.6607856693397971
194	0x3fe26d68a304ded7	0.5758555587735498
195	0x3fe1e4346ce8ec6d	0.5591070296426445
196	0xbfb0abc9d514626b	-0.065121283074754
197	0x3fe05552d2b1bef5	0.5104154696582258
198	0xbfde24ffb9b5d2a2	-0.47100823531881464
199	0x3fd9c154c87968b6	0.4024249990230929
200	0x3fdd5b0b2e15ebc2	0.4586818647437064
201	0x3fa9ab34928b1235	0.05013431824548712
202	0xbfd8914295f224e8	-0.38386597293044966
203	0xbfd6a996edc408a6	-0.35410092562973217
204	0x3fd7552eacbe2410	0.36457411641509996
205	0xbfc5924340f7d6c2	-0.16852608368178862
206	0x3fa2725273a9a177	0.03602845823189942
207	0x3fe3b34460d426c5	0.615633191221797
208	0xbfcf8fc3f365081c	-0.24657487282280577
209	0x3fe363d6a28c2877	0.6059373068576538
210	0xbfcb07298048a056	-0.21115607036449785
211	0x3fc4c550dfb82a8f	0.16227160381125258
212	0x3fe11ce8905a41d6	0.534778863848312
213	0xbfcb289cbcd9112f	-0.21217688771333473
214	0x3fd42e77ba6085db	0.31533616257556013
215	0xbfd0cbdbba6f1a83	-0.2624425240177645
216	0x3fac88d2333e2800	0.05573136210939822
217	0x3fde91dcda6b98ee	0.4776527531634106
218	0x3fa08567708b7e69	0.03226779221381266
219	0xbfce429c53ece25c	-0.23640779588619665
220	0x3fc8231f8a8f20cf	0.18857187524395733
221	0xbfbc832ee46918a4	-0.1113766963618184
222	0xbfdb230f40361c49	-0.4240148665489341
223	0xbfda6f0664fced54	-0.41302642690762537
224	0xbfa9fd79d28f1fce	-0.05076199240971811
225	0xbfd61369d95dfb87	-0.3449349043584608
226	0x3fd195b4e8d784db	0.274762370476379
227	0x3fbba747f4c66fc0	0.10802125669437057
228	0x3fe6d1bad760681e	0.713101788194084
229	0xbfe3d05ccef9b808	-0.6191848795403994
230	0x3fe30bbf2c05d921	0.5951839313336543
231	0xbfce3085dbabe706	-0.23585580087802088
232	0xbfb05960acf878e7	-0.06386379454531586
233	0x3fcd84e7f1fbbe7b	0.23061847034067626
234	0x3fc2f368d6286c0b	0.14805326897553103
235	0x3fd87ae07717e1e3	0.3824998057384887
236	0xbfca9266ec0f7049	-0.20759283567793066
237	0x3fc99a93b15d223d	0.2000298133882711
238	0x3fdc5b6a22eea35c	0.44307950412126273
239	0xbfd33e7ec2690d3b	-0.30068940148722206
240	0x3fadea5f24e6aeb8	0.05842873883679317
241	0x3fd066e9cbbd7edf	0.25628132721429425
242	0xbfe1981e193848d4	-0.5498190395903984
243	0xbfd395e432f88d3c	-0.3060236451876397
244	0x3fc7c128b05f5a43	0.18558224307953894
245	0xbf96689f08e3fb25	-0.021883473317752995
246	0xbfddc839639ed235	-0.46534571388773155
247	0xbfa6d9d0d79e3a00	-0.044630552597585194
248	0xbfcd9f44298b0d3b	-0.23142292049861077
249	0x3fdebab1fb458cc1	0.480144973165988
250	0xbfe4aab1a9fb1304	-0.645836669915838
251	0xbfc3467ea36d30eb	-0.15058882694064066
252	0x3fa8ac913395c52f	0.04819158320141025
253	0xbfc5ceaf28d64172	-0.17037000173560163
254	0x3fd01d83c40a2b5a	0.2518014349413328
255	0xbfd51cc11a0e613a	-0.3298800234274669

b2 f8 [16, 1]
0	0x3fbee48303910ab6	0.12067431294512229
1	0x3fa3d3099cbfb811	0.038719463714969156
2	0x3fdd79d80f2be38d	0.46056176644884134
3	0xbfd050dd7cd9673e	-0.25493561928088926
4	0x3fc7b91fbe0d0865	0.18533703594045217
5	0xbfd4094638415147	-0.31306605809847493
6	0xbfd5a1dcad8709ed	-0.33800427385372595
7	0xbfc9d11242fd3b17	-0.20169285078960605
8	0x3fd8bc844642b57a	0.38650614606270717
9	0xbfb29c80ff14609d	-0.07270055987862852
10	0x3fd13bdd7a786c6d	0.26927887878418383
11	0x3fc570f1222496da	0.167509214087821
12	0x3fc5a3b9ce82088a	0.16905901511569638
13	0x3fca8ac278ecf8cf	0.20735960869382672
14	0x3fe0ac5078dbbe72	0.5210344658389217
15	0x3fed19895bfaf940	0.9093672558299559

W3 f8 [10, 16]
0	0xbfd70f7b93478ec6	-0.3603199899937234
1	0x3fb6f951a1e56003	0.08974180414713832
2	0xbfdf8210e3a99189	-0.49231359703687666
3	0x3fcee30b641ca803	0.2413038481548143
4	0x3fb0e84acb3626d4	0.0660444971200847
5	0xbfd107ede37d9d84	-0.2661089631642073
6	0xbfc63f54fb7fe4d6	-0.173807738115818
7	0x3ff05325d4b64565	1.0202997502386435
8	0x3fb4e876f5229263	0.08167212948553408
9	0xbfe1c07818d45474	-0.5547447667073713
10	0x3fe0420b77ca99d7	0.5080621089626288
11	0x3fdc4ea62ab095a3	0.44230035942958973
12	0x3fbf0ec048c855af	0.12131883408468157
13	0xbfb946e5dc62718b	-0.09873806601030403
14	0xbfd8c93012ebe8f6	-0.3872795281200888
15	0x3fcc960c575ef962	0.22332910791551358
16	0xbfea573ca6b63031	-0.8231490379416809
17	0x3fb8318438892dba	0.09450556164045212
18	0xbfbae40b72995b2c	-0.1050421862395125
19	0x3fd4a79710a93f8b	0.32272888781607695
20	0xbfe159eafae8b486	-0.5422263050619598
21	0xbfb9389f58f1330a	-0.09852024003448548
22	0x3fed1ed60aa3d960	0.9100141723454662
23	0xbfe388ce2b2202ff	-0.610449871295799
24	0x3fd960b649c5a844	0.39652783588701745
25	0xbfe1fb26775c757b	-0.5619079905770116
26	0xbfe08c273c0bd445	-0.5171085522439475
27	0x3fddc818d9c9a7df	0.46533795612651646
28	0xbfb8b27e44d6849d	-0.09647359066595347
29	0x3fe0682184b77d69	0.512711295330445
30	0xbfe3d0511d6fce2b	-0.6191793036400147
31	0x3fdafb7cb6f23d15	0.4215995585045261
32	0x3faf2c945fc0d862	0.06088699025023982
33	0x3fed7a4161cdc409	0.9211737547140056
34	0xbfb9710deb1354f2	-0.09938132275722802
35	0x3fd160918c65ac39	0.27151907644901346
36	0xbfa129b3852476f3	-0.03352128029130865
37	0x3f9c8f67673762aa	0.0278907925365696
38	0x3fe310ce05858fdc	0.5958013637396067
39	0x3fe03d8889eea465	0.5075113958347514
40	0xbfafafc09ad9636d	-0.06188775911568354
41	0xbfe182f532a98511	-0.547236060094436
42	0x3fb2ac493261099c	0.07294137458760591
43	0x3fd9309023fbfe44	0.39358905328842675
44	0x3f9d986876fb94f8	0.02890170313084625
45	0xbfc2ad06ecdfdc37	-0.14590536657462547
46	0x3fe5801bf7bdb971	0.6718883360570499
47	0xbfefa24704a516e2	-0.9885592547149964
48	0x3fe204f3fff93705	0.5631046294672336
49	0x3fc29fb2c705c42c	0.14549860685250005
50	0xbf9e1948b3148427	-0.029393325739082734
51	0xbfda0bdd5afecd07	-0.4069741619707234
52	0xbfcebc164677c2ed	-0.240114960106005
53	0xbfcb643a19f467d3	-0.21399618403739726
54	0x3fe8c8b858ec454e	0.7745019661689783
55	0xbfcc9a4dfae68214	-0.22345900298115906
56	0xbfe97515da2a1626	-0.7955426465056845
57	0x3fd6af7cb83540f7	0.3544608878046484
58	0xbfeef669a2ed7b44	-0.9675796682530309
59	0xbfd3eec030936584	-0.3114471887943966
60	0xbfd2d98589013426	-0.2945264661728423
61	0x3ff3377be519ab33	1.2010458897809257
62	0x3fd6ba8cdf828b11	0.35513612582342186
63	0xbfa20699b99c7872	-0.035206607730501896
64	0xbfd5ffa1777cdc74	-0.34372746151661393
65	0xbfcf069d2cfcc57a	-0.2423893422760946
66	0xbfd81cca4a14daf6	-0.37675721392172024
67	0xbfe1454d668ebc67	-0.5397097590520276
68	0x3fbb260ba0b2e6cf	0.10604927705108057
69	0xbf9ff947ed290380	-0.031224368906126454
70	0xbfb2034ea8438a4d	-0.0703629647064556
71	0x3fc6963bc816d9ea	0.1764597632406571
72	0x3fd1362417c5d464	0.26892950364646695
73	0x3fd5312d44bca533	0.3311265155085323
74	0x3fdb893e2e1bcf79	0.4302516413001665
75	0x3fe0e579910dc585	0.5280120690423905
76	0x3ff02674d75c32e1	1.0093887722497856
77	0xbfe8c7ea77fc2220	-0.7744037955718035
78	0x3fd1d50bf2d5925d	0.2786283370426526
79	0xbfd6e3c5a04ec036	-0.3576520982269388
80	0x3fe112a77a2b6a0a	0.5335271249890081
81	0xbfdd434eb5602494	-0.4572331210370717
82	0x3fd6db7a83163a7a	0.3571459083695242
83	0x3fec02b2dbc37919	0.8753294269807014
84	0xbfefc46db3b2c296	-0.9927280912143768
85	0x3fe051c58d83def0	0.5099818958251188
86	0xbfdcbdfd28c3a08d	-0.4490960023963531
87	0xbfe35ae17a479845	-0.6048438442492247
88	0xbfce2e1c174ad4bb	-0.2357821573001838
89	0x3fd73b18bbd013e3	0.3629819711789521
90	0x3fd1a503df73979a	0.2756967241424434
91	0xbfa67c1b81374e1b	-0.04391561462730583
92	0xbfd424c7e08f4e9c	-0.314744920059846
93	0x3fde276081dfff6d	0.47115338023285497
94	0x3fdc506205482483	0.44240618243981816
95	0x3ff2ee0295af667d	1.1831079337192982
96	0x3f95344eeb171450	0.02070735273243357
97	0xbfd81d4f6b881e32	-0.3767889547457087
98	0xbfd7bee964ec3233	-0.3710273252079645
99	0x3fd0cd8ef0d64fcd	0.26254628676656183
100	0xbfc6eb508031922b	-0.1790562272973529
101	0xbfc6a959474570f3	-0.17704311351815924
102	0xbfeeb1091b986bca	-0.959110788247352
103	0x3f9d1d24f6258b96	0.02843148949012749
104	0x3ff208a68687dbfc	1.1271119361024367
105	0xbfa4d21f44bd4b68	-0.0406656047258796
106	0xbfc7487e3bebbbed	-0.18189981389829715
107	0x3fe1716978bb356d	0.5450942380936518
108	0xbff16b0c616114d6	-1.088634853732676
109	0xbfc231ac7c728a26	-0.14214092327627376
110	0xbfc951b9938e48f4	-0.197806546257716
111	0x3fd8450011d91009	0.37921144240340304
112	0xbfd0d34d26973afd	-0.26289681213977173
113	0x3ff0ee2d06045b3d	1.058148406509374
114	0x3feb5fdbe6006696	0.8554515354364465
115	0xbfd9836d5c69769e	-0.39864667915922236
116	0x3fb5833ba80d9c5f	0.08403370716915635
117	0x3fc2e7027dfe0213	0.14767485763515306
118	0x3fe492d3f04cbe5a	0.6429233258585996
119	0xbfd041d609a1f38c	-0.2540183157032565
120	0xbfe9a3402330fd30	-0.8011780440646472
121	0xbfda3877d6b70e22	-0.409696540529895
122	0x3fde291192e02011	0.47125663131055356
123	0x3fc5180cf8bd6c27	0.16479646821503133
124	0x3fe520ee05aae2c8	0.6602697478002364
125	0x3f896b13c925a065	0.012411264968889843
126	0xbfd1003ba22cec72	-0.26563921773385524
127	0x3fcc842d0b775e09	0.22278369006993184
128	0x3fdfe5c1e695d829	0.4983982803163394
129	0xbfc7607d43f9c29d	-0.18263212031481127
130	0xbfb610123271ca7e	-0.08618272525363044
131	0xbfe3a4032f473190	-0.6137710498237983
132	0xbfb63028da32f749	-0.0866723568642246
133	0xbfe410e90dd8425f	-0.6270642538457415
134	0x3fd52f71b0fb2474	0.3310207584696123
135	0x3fd84060af9c80a0	0.3789293017343969
136	0xbfc9115a796c6d67	-0.19584208420642854
137	0x3ff4086a2dc7f77b	1.2520543850255013
138	0xbfa7a0d05ca401a6	-0.04614878779284774
139	0xbfd2b13ec619d52e	-0.292068189104003
140	0xbfe85abfd7f89d53	-0.7610778062998328
141	0xbfd127db1f4c516d	-0.2680576139112166
142	0xbfaa97c0941e34e6	-0.051939027863321205
143	0xbfbd5c1b0843406d	-0.11468666984296912
144	0x3fe045ced227aaa8	0.5085214714611839
145	0xbfe0b53f166ecee8	-0.522124809087896
146	0xbfec387c4d812dca	-0.8818952096711936
147	0xbfc0ec8aee0e0e9f	-0.13221871017241413
148	0x3fcf2effc38da20c	0.2436217980241654
149	0xbfc8d1608f868038	-0.1938896847541416
150	0x3fe3880bdeb0e9af	0.6103572225031736
151	0xbfb7e785053139b0	-0.09337645890011603
152	0xbfe486123ca6c0e4	-0.6413661179158479
153	0x3fd3f369fbed723b	0.3117318115453462
154	0x3fe0c9da1f6418d3	0.5246401417832892
155	0xbfef8ffdc122a6a6	-0.9863270542311582
156	0x3fe84428bb0be567	0.7583202031375266
157	0x3fd8a0ba2c9c8f1d	0.38481001240346463
158	0xbfe8f73275abf22e	-0.7801754282259645
159	0x3fd0e4fe627f1ac0	0.26397666567610756

b3 f8 [10, 1]
0	0xbfddc2d061601d67	-0.46501550206490666
1	0xbfd2afa62d3e30f6	-0.2919707719636472
2	0xbfeb19feed8be56c	-0.8469233169154626
3	0x3fe062379b4bd76c	0.5119894059305188
4	0xbfd7ce609a93d856	-0.37197127433262744
5	0x3fe68467b0467ddc	0.7036627238157354
6	0x3fdeeefe180178d1	0.48333694786368847
7	0xbfd318075ffcded9	-0.2983416020756358
8	0x3fd553299a00242c	0.3332008365546837
9	0xbfe0f0ceae170ebd	-0.5293954277226117
